inference/container_image/application/model/model.onnx (onnx, 655412 bytes, 7 tensors)

model/dense/MatMul/ReadVariableOp:0 f4 [100, 1]
-0.16528948 0.15528837 -0.09074651 0.27179793 0.15113631 -0.2132237 -0.059900302 -0.122060165
0.18131806 0.025990464 -0.14301506 0.06840392 0.16972877 0.16869724 -0.1971146 0.21522132
0.21125653 -0.1319008 0.18816857 0.15089037 -0.05158327 -0.17247936 0.26742232 0.10853505
-0.23948483 0.13349538 0.13551699 -0.19254299 0.13724358 -0.046009135 -0.18760322 -0.2268263
-0.2964126 0.07098507 0.16519196 0.17992024 0.15457614 -0.091170765 -0.15931717 0.112405375
0.18861514 0.09327583 0.20228308 0.16737528 -0.21272454 0.28363323 -0.10246836 0.14719209
0.10441353 0.0397061 -0.08873768 0.059411287 -0.31700245 -0.274863 -0.1624166 -0.18752475
0.08845916 -0.099584855 -0.104023956 0.15558065 0.06996248 -0.21367827 0.27806363 -0.104138106
0.14385521 -0.23833826 0.1500393 0.12783267 0.0025545089 0.2524882 0.18701833 0.07853663
-0.21920127 -0.06528079 0.17853776 -0.02846367 0.19766793 -0.15253024 -0.11683022 0.24966773
0.1553366 0.26316854 0.011851098 0.17040075 -0.3301192 0.21353537 0.18185824 0.068096794
0.21164688 -0.19056627 -0.22537673 0.46942356 -0.0050205593 0.044050932 -0.16402526 0.08745033
-0.25616974 -0.21476822 -0.121888734 -0.16226733
00000000: a541 29be ea03 1f3e 4ed9 b9bd 1929 8b3e
00000010: 7ac3 1a3e 5057 5abe 055a 75bd aefa f9bd
00000020: 71ab 393e f4e9 d43c 8a72 12be 5b17 8c3d
00000030: 61cd 2d3e f8be 2c3e 69d8 49be fa62 5c3e
00000040: a253 583e 0111 07be 43af 403e 0183 1a3e
00000050: fb48 53bd 6e9e 30be 94eb 883e a047 de3d
00000060: 833b 75be 03b3 083e f7c4 0a3e fd29 45be
00000070: 9589 0c3e 1374 3cbd 0f1b 40be 2745 68be
00000080: 64c3 97be 9f60 913d 1528 293e 033d 383e
00000090: 3549 1e3e bdb7 babd 0a24 23be ca34 e63d
000000a0: 5424 413e 6607 bf3d 4c23 4f3e 6d64 2b3e
000000b0: 76d4 59be 6038 913e eeda d1bd 86b9 163e
000000c0: c3d6 d53d dda2 223d 1abc b5bd 4059 733d
000000d0: 254e a2be d8ba 8cbe 8a50 26be 7d06 40be
000000e0: 132a b53d 25f3 cbbd 830a d5bd 8950 1f3e
000000f0: 7d48 8f3d 7ace 5abe 5b5e 8e3e 5c46 d5bd
00000100: c84e 133e f20e 74be e7a3 193e 91e6 023e
00000110: 8c69 273b 2246 813e bc81 3f3e d0d7 a03d
00000120: 4c76 60be efb1 85bd 9ad2 363e a42c e9bc
00000130: 7669 4a3e e330 1cbe af44 efbd e6a8 7f3e
00000140: 8f10 1f3e 07be 863e 1c2b 423c 897d 2e3e
00000150: 6205 a9be 04a9 5a3e 0c39 3a3e 5576 8b3d
00000160: f6b9 583e ce23 43be 28c9 66be 4958 f03e
00000170: 8183 a4bb c06e 343d 3df6 27be 2919 b33d
00000180: ae28 83be 33ec 5bbe cda0 f9bd 6829 26be

W0__62 f4 [1, 400, 100]
0.0747166 0.16008349 0.17411941 0.16657001 0.011352477 -0.0098337475 -0.26933068 0.01739046
0.016630625 -0.077752694 0.10047004 0.00614251 -0.048056725 -0.14164679 0.05795166 -0.09320721
-0.03307583 0.040735193 -0.027315209 0.1429156 0.07403393 0.09614471 0.029111596 -0.05393047
0.15669315 -0.18950503 -0.035466734 0.18234147 -0.13873598 -0.14176118 -0.26937997 -0.0530615
0.16273582 -0.17033276 0.02164156 -0.1389038 -0.10212683 -0.026593661 0.046556808 0.07270997
-0.09078468 -0.05337152 -0.12406952 -0.1681887 -0.054226592 -0.16585723 0.15281785 0.11326311
0.06847859 0.018997919 -0.017015709 0.08860968 -0.070351705 -0.14601357 -0.08049261 0.06370115
0.22112654 0.16907075 -0.04665978 -0.038721524 -0.029296571 -0.17435741 -0.11528619 -0.07746364
-0.089419976 -0.0053851004 -0.036807846 0.13758048 0.04555444 0.12125542 -0.13889867 0.04162452
-0.19063812 0.1501806 -0.11559419 0.16163379 0.06400562 -0.10768462 -0.034547884 0.084709816
0.09940503 -0.124623984 0.037975702 0.09602783 0.06749596 0.027656592 -0.08935857 0.05008875
-0.15620801 0.008651628 -0.21607645 -0.013017031 -0.038830366 0.090311356 -0.14614482 -0.1356903
0.17606463 0.102153614 0.2784235 -0.14711598 0.2948725 -0.04266591 0.053299885 -0.15554701
0.051213197 -0.0876716 -0.23243116 -0.06668877 -0.021000793 -0.07077268 -0.17351824 -0.11261982
0.08504148 0.16983989 0.06195168 0.19273274 -0.20485304 -0.17551881 -0.016010342 -0.043331932
0.17648983 0.0017523221 0.05090685 0.11485798 -0.16783266 0.08515031 -0.13133119 -0.0031835877
-0.15461703 0.14754973 0.12103183 0.059749085 0.0056177024 0.09990958 0.119209774 -0.057024185
0.23590472 -0.16610897 0.024563512 -0.34130862 -0.23326793 0.0034256966 0.015912237 -0.042608302
0.12620148 0.1308289 -0.01482902 -0.096578635 0.07921642 0.0045329425 0.032502476 0.011109523
-0.051923454 -0.1870797 -0.002508423 -0.023236804 -0.08987498 0.03954537 0.076951824 0.061615564
-0.008453982 0.1565936 -0.029650263 -0.0031131348 -0.10279774 0.08374226 -0.084015004 0.097313344
-0.081899785 0.022524608 0.14599508 0.11204322 0.19529682 -0.10832353 -0.11305497 0.07849927
0.0017875247 -0.198243 -0.056828786 -0.021629239 0.04938831 0.061554532 0.122061856 -0.09166042
-0.20273001 -0.00979867 -0.005598705 0.15502958 0.4129579 -0.0767358 -0.27492943 0.32693315
0.053725474 -0.06387653 -0.07985427 -0.035790235 0.069000795 -0.058971606 -0.2548498 0.05468906
-0.03248392 -0.38174012 0.04400223 0.11804324 0.07196196 0.18352835 -0.12572585 0.021193357
0.22437665 0.080505416 -0.02926456 -0.072345555 -0.09208192 0.020508392 -0.13336143 -0.04913118
-0.19803162 -0.039932948 -0.12706932 -0.0044247587 0.23731057 0.058719467 -0.18626042 -0.12065468
-0.31437606 -0.16519728 -0.19870885 -0.11332371 -0.13909826 0.31081378 -0.12849702 0.25453544
0.20502588 0.2423244 -0.052768253 0.18906339 0.054220047 -0.09397142 -0.15489231 -0.037733767
-0.059687853 -0.06718176 -0.055882733 0.054168265 -0.2848718 0.12376233 -0.07817119 -0.109550156
-0.10482421 -0.33635876 0.16329618 0.055013992 0.1679345 0.048774958 -0.08589581 0.13501465
00000000: 0405 993d edec 233e 5c4c 323e 5491 2a3e
00000010: bdff 393c ba1d 21bc b6e5 89be 7076 8e3c
00000020: f33c 883c ce3c 9fbd 3dc3 cd3d 1c47 c93b
00000030: 21d7 44bd db0b 11be b85e 6d3d 6ce3 bebd
00000040: 867a 07bd f2d9 263d 25c4 dfbc 7858 123e
00000050: 1a9f 973d 85e7 c43d 717b ee3c 32e6 5cbd
00000060: 2b74 203e 9b0d 42be 9145 11bd b9b7 3a3e
00000070: ce10 0ebe d829 11be 2cec 89be 0457 59bd
00000080: 38a4 263e b66b 2ebe a449 b13c cc3c 0ebe
00000090: df27 d1bd f3da d9bc 5ab2 3e3d f7e8 943d
000000a0: 51ed b9bd 189c 5abd 2918 febd a939 2cbe
000000b0: b41c 5ebd 7ad6 29be 487c 1c3e 7df6 e73d
000000c0: 813e 8c3d 86a1 9b3c 8764 8bbc fe78 b53d
000000d0: 8e14 90bd 9584 15be 4fd9 a4bd c075 823d
000000e0: ff6e 623e e220 2d3e 531e 3fbd 769a 1ebd
000000f0: 5dff efbc c08a 32be 2a1b ecbd 42a5 9ebd
00000100: d221 b7bd 7f75 b0bb d3c3 16bd e6e1 0c3e
00000110: 4b97 3a3d c354 f83d 743b 0ebe 797e 2a3d
00000120: a436 43be f1c8 193e a6bc ecbd 5483 253e
00000130: 6115 833d c189 dcbd 1582 0dbd 577c ad3d
00000140: dd94 cb3d dc3a ffbd 698c 1b3d 3daa c43d
00000150: 523b 8a3d 1490 e23c a001 b7bd dc29 4d3d
00000160: fef4 1fbe 8fbf 0d3c 2543 5dbe 6345 55bc
00000170: 970c 1fbd 29f5 b83d fda6 15be 66f2 0abe
00000180: 494a 343e ea35 d13d 868d 8e3e 92a5 16be
00000190: 87f9 963e 73c2 2ebd fb50 5a3d b747 1fbe
000001a0: eec4 513d 2b8d b3bd 6f02 6ebe 1f94 88bd
000001b0: db09 acbc 44f1 90bd c4ae 31be 38a5 e6bd
000001c0: 3a2a ae3d 82ea 2d3e 0bc1 7d3d bb5b 453e
000001d0: ffc4 51be 34bb 33be 1f28 83bc d37c 31bd
000001e0: c0b9 343e 2cae e53a b383 503d a93a eb3d
000001f0: 53dc 2bbe 4963 ae3d af7b 06be bda3 50bb
00000200: ed53 1ebe 4717 173e 89df f73d 75bb 743d
00000210: b414 b83b 659d cc3d 4124 f43d 3192 69bd
00000220: 0291 713e 7818 2abe 6b39 c93c 01c0 aebe
00000230: cadd 6ebe a781 603b 615a 823c 0b86 2ebd
00000240: f63a 013e 03f8 053e 6bf5 72bc 05cb c5bd
00000250: 383c a23d 1489 943b 5121 053d b704 363c
00000260: b0ad 54bd d291 3fbe 5b64 24bb 1c5b bebc
00000270: 6010 b8bd 53fa 213d eb98 9d3d 9a60 7c3d
00000280: 9282 0abc 135a 203e 1ce5 f2bc bc05 4cbb
00000290: 9f87 d2bd 1081 ab3d 0f10 acbd 384c c73d
000002a0: 13bb a7bd 8785 b83c bc7f 153e ea76 e53d
000002b0: e4fb 473e bad8 ddbd 5d89 e7bd 3ac4 a03d
000002c0: 604b ea3a 3700 4bbe 4dc5 68bd cd2f b1bc
000002d0: 664b 4a3d 9b20 7c3d 91fb f93d 75b8 bbbd
000002e0: 7598 4fbe 9a8a 20bc 5775 b7bb 13c0 1e3e
000002f0: 386f d33e a927 9dbd 8dc3 8cbe c863 a73e
00000300: 3e0f 5c3d b3d1 82bd a38a a3bd c898 12bd
00000310: 4a50 8d3d 368c 71bd ac7b 82be a301 603d
00000320: dc0d 05bd 7173 c3be af3b 343d a7c0 f13d
00000330: cb60 933d dbee 3b3e 47be 00be b19d ad3c
00000340: fec2 653e 06e0 a43d 3bbc efbc e829 94bd
00000350: 7295 bcbd 3701 a83c e68f 08be c73d 49bd
00000360: cdc8 4abe bb90 23bd 761e 02be 91fd 90bb
00000370: 8b01 733e d383 703d 0dbb 3ebe cd19 f7bd
00000380: e6f5 a0be 7a29 29be 557a 4bbe 4316 e8bd
00000390: c66f 0ebe fc22 9f3e b994 03be 7852 823e
000003a0: 4ef2 513e e323 783e 8623 58bd d599 413e
000003b0: d715 5e3d 1674 c0bd 179c 1ebe b98e 1abd
000003c0: 407b 74bd 9796 89bd 4be5 64bd 8bdf 5d3d
000003d0: b7da 91be 1b77 fd3d 3818 a0bd d55b e0bd
000003e0: 13ae d6bd 3737 acbe 1d37 273e 5a56 613d
000003f0: 06f7 2b3e 40c8 473d 24ea afbd 4841 0a3e

W0__41 f4 [1, 400, 103]
0.22623725 -0.025277097 -0.006913033 0.38623938 -0.7054293 -0.084475674 0.33755922 0.25252056
0.29954275 -0.078191765 0.04912783 -0.07338858 0.03768511 0.25178644 0.2929021 -0.007879181
0.13854615 0.20304085 -0.12508142 0.20100817 0.18429963 0.1249857 0.2702751 0.31084064
0.217383 -0.13147497 -0.46119285 0.14659268 0.082383044 0.029486181 -0.36393216 0.3903421
0.37402496 0.035329666 -0.012827869 0.25710955 -0.17058502 0.1365108 0.39767247 -0.018671257
-0.08615956 0.1895421 0.50335187 0.018972568 0.19280222 0.4961158 0.6942135 0.40598613
0.2874455 0.59237075 -0.108297765 0.27177462 0.3873094 -0.015776632 0.25932792 0.32129717
0.071667284 0.19374606 -0.038945023 0.098204955 0.21297656 0.39686024 0.53816754 0.4027613
0.37807745 0.08077748 0.05577552 -0.28818467 0.14116797 0.26746935 0.18251297 0.123259015
-0.003736102 -0.3391696 0.3502103 -0.18646576 0.5034584 0.05227079 0.13361554 0.3102892
0.1003317 -0.029263217 -0.06418296 0.035023555 0.09547885 -0.14742446 -0.06995198 -0.008577624
-0.00083996006 0.033062305 -0.20860885 -0.14851664 -0.0558322 0.0294963 -0.17473364 0.11049069
0.007030604 0.0021142787 0.013499596 0.08187312 0.25215217 0.06010185 -0.21456161 0.0905924
-0.19457993 0.17499425 0.57669973 0.20709702 0.117717884 0.089627 -0.060500465 -0.0009907824
0.28270137 -0.20665298 0.13565573 0.11170738 0.21674378 0.09057654 0.063206695 0.0034249963
0.08853108 -0.21404679 -0.2501722 0.0973079 0.21580826 0.015966455 0.0038043917 0.13920042
0.0051564476 0.032646738 0.018748997 0.14229447 0.20411716 0.23429054 -0.20661326 -0.047573026
0.3701557 0.015804531 0.3040335 0.09081234 0.2874176 0.18834703 -0.031771466 -0.15698758
0.48820624 0.7811 -0.096925184 -0.4559853 0.7075661 0.0726909 0.5382262 0.54346937
-0.021413501 -0.14412946 0.13924652 0.41017112 0.051638734 0.7811864 0.08083408 0.1369687
-0.18540373 -0.08220013 0.17370981 -0.16261251 -0.07606158 -0.24683394 0.7128915 -0.06678422
0.0109173395 0.12122555 0.7883305 -0.035505734 -0.051834 0.21443449 0.11720385 -0.18355636
-0.2807051 0.05802798 0.31831104 0.44010353 -0.04032608 0.054675803 0.95302844 -0.056169696
-0.14273001 0.19671567 -0.03822534 0.10946453 0.5980917 0.08525375 0.103540726 0.027500385
0.07361729 0.6720798 0.07931575 0.07641251 -0.07640414 -0.19539016 0.23328462 0.0058153453
0.1338363 0.077134565 -0.008958942 0.69853586 -0.11895328 -0.28545552 0.02629923 -0.009647445
-0.28904307 -0.16845945 0.26346704 -0.17047073 -0.10602293 0.09311956 0.32796124 0.11833277
-0.21283518 0.025207913 -0.046990402 0.18829742 -0.08828158 0.0102942325 0.03840591 -0.20531076
-0.08909222 0.12272697 -0.004942895 0.5109848 0.20800401 -0.027462248 0.24497278 -0.344238
-0.105222896 -0.18989125 0.12606595 -0.028914353 0.30528665 -0.2240999 -0.2763704 0.29297343
-0.2615688 -0.21271269 0.041905075 0.1477087 0.32841578 -0.20820794 -0.028585337 0.23388548
-0.008812001 0.018061314 -0.12764156 0.34048757 0.7952049 0.012130214 -0.22862042 0.0806584
00000000: bdaa 673e ea11 cfbc b986 e2bb 2bc1 c53e
00000010: 0497 34bf 9501 adbd 90d4 ac3e 604a 813e
00000020: ab5d 993e 0123 a0bd 433a 493d c04c 96bd
00000030: b45b 1a3d 27ea 803e 44f7 953e ae17 01bc
00000040: 0bdf 0d3e f1e9 4f3e 5815 00be 16d5 4d3e
00000050: 0bb9 3c3e 81f8 ff3d 7f61 8a3e 8126 9f3e
00000060: a699 5e3e 60a1 06be 7821 ecbe 641c 163e
00000070: 71b8 a83d 018d f13c 5155 babe ebda c73e
00000080: 3380 bf3e d7b5 103d fb2b 52bc dda3 833e
00000090: d7ad 2ebe 7dc9 0b3e ba9b cb3e 77f4 98bc
000000a0: 6c74 b0bd 5317 423e abdb 003f 5c6c 9b3c
000000b0: f26d 453e e402 fe3e fab7 313f 6add cf3e
000000c0: 0e2c 933e 9ca5 173f 38cb ddbd 0b26 8b3e
000000d0: 6b4d c63e ff3d 81bc a1c6 843e 1081 a43e
000000e0: 4cc6 923d 5e65 463e d184 1fbd ae1f c93d
000000f0: 8716 5a3e 4431 cb3e 59c5 093f bb36 ce3e
00000100: 5e93 c13e aa6e a53d df74 643d f18c 93be
00000110: 568e 103e bef1 883e aee4 3a3e 396f fc3d
00000120: 64d9 74bb a3a7 adbe c44e b33e e1f0 3ebe
00000130: a6e2 003f e519 563d 83d2 083e 3ade 9e3e
00000140: b57a cd3d 6ab9 efbc 5b72 83bd dc74 0f3d
00000150: 6a8a c33d 70f6 16be fc42 8fbd 2a89 0cbc
00000160: c430 5cba 576c 073d 8f9d 55be bf14 18be
00000170: 4eb0 64bd 39a2 f13c 60ed 32be f148 e23d
00000180: fb60 e63b b68f 0a3b 692d 5d3c 18ad a73d
00000190: 171a 813e 5c2d 763d 0ab6 5bbe 8288 b93d
000001a0: f63f 47be b131 333e 98a2 133f 3e11 543e
000001b0: 1316 f13d 5c8e b73d 56cf 77bd 24dd 81ba
000001c0: 3cbe 903e d79c 53be 56e9 0a3e d7c6 e43d
000001d0: 15f2 5d3e 3180 b93d 8372 813d e775 603b
000001e0: c84f b53d 152f 5bbe 9216 80be 5d49 c73d
000001f0: d7fc 5c3e 15cc 823c 1a53 793b 8e8a 0e3e
00000200: 6bf7 a83b 96b8 053d 7f97 993c a4b5 113e
00000210: 1704 513e dce9 6f3e 6d92 53be efdb 42bd
00000220: 0c85 bd3e 8178 813c 47aa 9b3e d2fb b93d
00000230: 6628 933e 0bde 403e cc22 02bd 5ac1 20be
00000240: 2bf6 f93e 2bf6 473f b680 c6bd e876 e9be
00000250: 0d23 353f f7de 943d 31c9 093f cf20 0b3f
00000260: 5e6b afbc ac96 13be a496 0e3e f301 d23e
00000270: 2383 533d d5fb 473f 578c a53d 8641 0c3e
00000280: 7ada 3dbe 8b58 a8bd fce0 313e e583 26be
00000290: 2cc6 9bbd 09c2 7cbe 0f80 363f 2ac6 88bd
000002a0: a4de 323c 1a45 f83d 07d0 493f 766e 11bd
000002b0: e34f 54bd b794 5b3e 9208 f03d 33f6 3bbe
000002c0: 94b8 8fbe bfae 6d3d aaf9 a23e 4055 e13e
000002d0: f62c 25bd bcf3 5f3d acf9 733f 3212 66bd
000002e0: d127 12be d56f 493e 2d92 1cbd f12e e03d
000002f0: 8a1c 193f 8599 ae3d 290d d43d 7d48 e13c
00000300: a9c4 963d 6c0d 2c3f 4c70 a23d 297e 9c3d
00000310: c679 9cbd 5c14 48be 2ae2 6e3e a78e be3b
00000320: 620c 093e baf8 9d3d 87c8 12bc 3fd3 323f
00000330: c79d f3bd 3a27 92be 7c71 d73c 5110 1ebc
00000340: 74fd 93be a280 2cbe 27e5 863e e18f 2ebe
00000350: 8d22 d9bd 78b5 be3d 89ea a73e 7458 f23d
00000360: 77f1 59be d380 ce3c 0279 40bd 0ad1 403e
00000370: f9cc b4bd 24a9 283c 844f 1d3d fc3c 52be
00000380: fb75 b6bd 4758 fb3d 02f8 a1bb e6cf 023f
00000390: 01ff 543e 82f8 e0bc 25da 7a3e f73f b0be
000003a0: 1a7f d7bd da72 42be 6f17 013e cbdd ecbc
000003b0: 884e 9c3e 727a 65be 6c80 8dbe 9d00 963e
000003c0: 59ec 85be 5bd1 59be a8a4 2b3d f340 173e
000003d0: 1d26 a83e 7634 55be cc2b eabc ad7f 6f3e
000003e0: 3660 10bc 52f5 933c 78b4 02be 6354 ae3e
000003f0: 8c92 4b3f cebd 463c 791b 6abe 3b30 a53d

R0__63 f4 [1, 400, 100]
-0.17985839 0.04614969 0.10291801 0.36269358 0.11772377 -0.17551039 -0.091830656 -0.09448901
0.112620346 -0.11114067 -0.20503025 0.08387976 -0.04605218 0.23262684 -0.06251662 0.0035427315
0.15773505 -0.026741747 0.033080168 0.11287664 -0.23088773 0.0054072095 0.0033853734 0.19309385
-0.085818864 0.13149999 0.16340907 -0.06418021 0.13870025 0.058430217 0.045944482 0.006387311
-0.22912288 0.20113836 0.2072657 0.14616962 0.119523965 -0.1847197 -0.18288556 0.029530818
0.07291943 -0.026815152 0.07415578 0.058380235 -0.09056387 -0.06807606 -0.0011697342 -0.08096401
0.10141783 0.2172748 -0.18788208 0.18043385 0.036026686 -0.17567937 0.009117949 -0.09831165
0.1473255 -0.12810323 -0.037458077 0.08532328 0.08946764 -0.008922883 0.10995197 -0.024282895
0.07766454 -0.09850291 -0.0016280466 0.041090146 0.11273827 -0.06171936 0.19279316 0.11472356
-0.2824722 -0.151308 0.15136299 0.059747685 0.23463972 -0.15758814 -0.050906733 0.018939212
0.1556473 0.18169396 -0.08318638 0.030234305 -0.2691555 0.006055032 0.15692562 0.17842714
0.22749501 -0.05232535 -0.18947707 0.026081398 -0.023129342 -0.049570683 -0.14746109 -0.10147283
0.022967001 0.12733275 -0.19829844 -0.045156237 -0.14469495 0.1636387 0.10593607 -0.075877
-0.035213444 -0.0076848846 -0.026452487 -0.07018233 0.13744943 -0.14435628 -0.022199217 0.007558543
-0.039458558 0.06168956 0.19996814 0.091023274 0.16428305 -0.100983255 0.0025895739 0.06700915
-0.034680363 0.07520067 0.019442614 0.09524417 0.09329323 0.00097495504 -0.0022924969 0.032168128
0.19973888 0.044702172 -0.029074844 0.07834514 -0.14263213 0.16844386 -0.013087749 0.15570204
0.049279597 -0.102627374 -0.07248327 0.09871366 -0.033321153 0.018565534 -0.03154639 0.030923588
-0.007448496 0.024154626 -0.1511232 0.12709899 -0.14773063 0.0016975385 0.0021597825 -0.10225462
0.16832203 0.006538559 -0.01042722 -0.10691357 0.13143171 -0.018168256 0.04846098 0.17097837
-0.0021010095 -0.09783016 0.0013747612 -0.110354036 0.06546304 -0.07614814 0.111172974 0.12913617
0.022032047 -0.07047854 0.21390076 0.00056330394 0.012888949 -0.035816547 0.08361453 -0.006054165
0.15937747 0.016130352 0.014898621 0.05950087 0.060577918 0.087727204 0.028556986 0.021612976
-0.17117693 0.04750154 0.072415605 0.1953922 0.081633225 -0.18434617 0.085962184 -0.029852435
0.22458035 0.051943835 -0.0821214 0.049643904 -0.00018050858 0.032677196 -0.09003796 -0.071664296
-0.056129742 0.13386491 0.01717505 -0.021803157 -0.13890027 -0.2752926 -0.14370474 0.15572165
0.030957146 -0.24296147 -0.14161186 -0.116851985 -0.073922314 0.006339735 0.1152111 0.009037961
0.04187712 0.13047339 0.10745128 0.12281501 -0.18145427 0.019603092 0.19494629 -0.029366506
-0.028394073 0.12128969 0.053901985 0.061020564 0.3110619 0.14055224 -0.16578639 -0.03852616
-0.09790449 0.17864509 -0.00022399292 0.094252825 -0.1334629 -0.054808747 -0.10804353 0.0357413
0.12647499 0.10093499 0.04238208 -0.032926735 -0.2183731 0.035945963 -0.02969591 -0.104186244
-0.29543334 -0.24301018 0.054017283 -0.02007604 -0.0627311 0.033778053 -0.021309074 0.006985423
00000000: cc2c 38be 7507 3d3d adc6 d23d f9b2 b93e
00000010: 2919 f13d ffb8 33be b611 bcbd 7483 c1bd
00000020: 7fa5 e63d b89d e3bd 73f3 51be 27c9 ab3d
00000030: 36a1 3cbd bb35 6e3e b708 80bd 2c2d 683b
00000040: 4c85 213e 8211 dbbc 127f 073d de2b e73d
00000050: d56d 6cbe f62e b13b 24dd 5d3b 65ba 453e
00000060: cdc1 afbd efa7 063e b554 273e ea70 83bd
00000070: 7007 0e3e 8654 6f3d 4830 3c3d a64c d13b
00000080: 309f 6abe 37f7 4d3e 763d 543e 7dad 153e
00000090: fbc8 f43d 2927 3dbe 5a46 3bbe 9dea f13c
000000a0: c856 953d 73ab dbbc fcde 973d 1d20 6f3d
000000b0: 8d79 b9bd 766b 8bbd c451 99ba 75d0 a5bd
000000c0: 27b4 cf3d 497d 5e3e 2964 40be a7c3 383e
000000d0: b890 133d 4be5 33be 7363 153c 9e57 c9bd
000000e0: 7fdc 163e 7e2d 03be a46d 19bd f9bd ae3d
000000f0: cf3a b73d 4931 12bc 802e e13d ecec c6bc
00000100: 960e 9f3d e5bb c9bd 2e64 d5ba 244e 283d
00000110: 52e3 e63d 71cd 7cbd 926b 453e 30f4 ea3d
00000120: 32a0 90be 7cf0 1abe e6fe 1a3e fdb9 743d
00000130: 6545 703e c95e 21be 9483 50bd 6826 9b3c
00000140: 0162 1f3e fb0d 3a3e 9f5d aabd efad f73c
00000150: c0ce 89be 4a69 c63b 1cb1 203e 9bb5 363e
00000160: 74f4 683e 1b53 56bd 4706 42be a8a8 d53c
00000170: bf79 bdbc a10a 4bbd 0a00 17be fdd0 cfbd
00000180: 4b25 bc3c 8463 023e bf0e 4bbe bff5 38bd
00000190: ea2a 14be e790 273e 03f5 d83d 6765 9bbd
000001a0: f93b 10bd 7cd1 fbbb e3b2 d8bc c1bb 8fbd
000001b0: 8bbf 0c3e 22d2 13be 22db b5bc a7ad f73b
000001c0: 4c9f 21bd 31ae 7c3d 73c4 4c3e 696a ba3d
000001d0: d139 283e 4fd0 cebd d7b5 293b 183c 893d
000001e0: ff0c 0ebd cf02 9a3d 1e46 9f3c 600f c33d
000001f0: 8510 bf3d 2094 7f3a b73d 16bb bac2 033d
00000200: 5988 4c3e a019 373d 5e2e eebc 6b73 a03d
00000210: 280e 12be 8c7c 2c3e ff6d 56bc 5b70 1f3e
00000220: 67d9 493d 4d2e d2bd 1c72 94bd 632a ca3d
00000230: c37b 08bd bf16 983c ca36 01bd 7753 fd3c
00000240: 8312 f4bb ecdf c53c 0ac0 1abe 3d26 023e
00000250: b346 17be f17f de3a 238b 0d3b df6a d1bd
00000260: 9c5c 2c3e 6941 d63b eed6 2abc 80f5 dabd
00000270: 0996 063e 98d5 94bc 057f 463d f414 2f3e
00000280: 17b1 09bb 2e5b c8bd 5531 b43a 4c01 e2bd
00000290: 7c11 863d 8ef3 9bbd a8ae e33d 463c 043e
000002a0: 8d7c b43c 0e57 90bd cd08 5b3e b0aa 133a
000002b0: 2c2c 533c 5fb4 12bd 183e ab3d 0462 c6bb
000002c0: d933 233e cd23 843c 5819 743c 2fb7 733d
000002d0: 8d20 783d 52aa b33d 57f0 e93c b20d b13c
000002e0: 0149 2fbe fa90 423d a24e 943d e514 483e
000002f0: 522f a73d 3ec5 3cbe f10c b03d 188d f4bc
00000300: 64f8 653e 0fc3 543d 442f a8bd 6857 4b3d
00000310: e746 3db9 86d8 053d d265 b8bd bbc4 92bd
00000320: 4de8 65bd e213 093e b1b2 8c3c 899c b2bc
00000330: df3b 0ebe 27f3 8cbe 5627 13be 7f75 1f3e
00000340: d799 fd3c e4ca 78be b302 11be 1850 efbd
00000350: 9564 97bd 8dbd cf3b ccf3 eb3d f513 143c
00000360: 5887 2b3d d19a 053e 6b0f dc3d 7086 fb3d
00000370: 26cf 39be aa96 a03c 00a0 473e 0792 f0bc
00000380: b09a e8bc bb66 f83d 54c8 5c3d b3f0 793d
00000390: 8143 9f3e edec 0f3e e8c3 29be 9bcd 1dbd
000003a0: 2682 c8bd bdee 363e a4df 6ab9 a007 c13d
000003b0: 80aa 08be 237f 60bd ed45 ddbd 7865 123d
000003c0: a982 013e 01b7 ce3d d598 2d3d 2fde 06bd
000003d0: 339d 5fbe 133c 133d d644 f3bc 995f d5bd
000003e0: 0a43 97be a9d7 78be 3a41 5d3d 8276 a4bc
000003f0: 2a79 80bd db5a 0a3d 5e90 aebc fae5 e43b

R0__42 f4 [1, 400, 100]
-0.41989326 0.12497056 0.073308185 0.09011437 0.07079319 0.20439112 -0.22419602 0.20182763
0.03324918 -0.3133522 -0.3240328 0.3736764 -0.25666374 -0.1974274 0.24785775 -0.334987
-0.24552953 0.41456932 -0.34506428 -0.32601947 -0.14175582 -0.3387107 -0.062996864 -0.4649867
-0.001175414 0.32552877 -0.14467362 0.04373971 0.33849248 0.560206 -0.2579565 -0.31083366
0.35363752 0.21648788 0.02097009 0.18887162 -0.41944057 0.04993433 0.18155947 0.39786342
0.37893504 -0.1685669 -0.39620152 -0.3156253 0.26502216 -0.34058484 0.06809872 0.011433545
-0.053065687 -0.2940784 0.208516 0.43689388 0.18078446 -0.09568957 0.092214376 0.13359882
-0.026254272 0.2978517 0.012265082 -0.26914075 0.013066336 -0.16714878 0.09109271 0.068399265
0.2502923 -0.15070981 0.0689103 0.35162038 0.14805005 -0.013332123 0.12015861 -0.18849663
-0.45253643 -0.24046959 0.3846878 0.26507214 0.12657051 0.23056905 0.017469889 -0.4033123
-0.27337563 0.05390507 0.1783401 0.2449503 0.32275248 -0.2811154 -0.091773346 -0.06459621
-0.09489975 0.37031162 0.21526258 -0.28104562 -0.46625924 -0.13088964 0.081241064 -0.20929983
0.06472146 -0.22334906 -0.2707245 -0.038779162 -0.06503908 0.8644132 -0.24568775 -0.0020532373
-0.15807591 -0.04803725 -0.020220805 0.1995433 0.13745236 -0.15131742 -0.3114789 0.24553585
0.09441184 -0.20622191 0.47548118 -0.043296512 -0.03731689 0.24069312 -0.048612587 -0.04638703
-0.38665602 0.0434234 0.25179055 0.048795972 0.38212112 0.37789527 0.37431493 0.3088067
0.21836235 -0.10502713 0.15133768 -0.036632907 -0.33738634 -0.14383614 0.23109502 -0.1618562
-0.009898322 -0.10648477 0.24527934 0.18693344 0.242458 0.17347589 -0.16591513 0.07595268
0.20926036 -0.2317905 -0.05679702 0.26022714 0.1857209 0.03451527 -0.05799139 0.2735961
-0.14678031 0.15561548 0.011524553 -0.18849353 -0.30221742 0.30883843 0.13620114 0.013390013
-0.018943574 -0.26350078 -0.00610428 -0.34409755 0.11864641 0.065976225 -0.2193215 0.10151237
0.0012245486 -0.5788114 0.40702444 0.095684 -0.11306021 0.22118977 0.03189856 0.24815676
-0.39204282 0.0063209846 0.14843553 -0.11332686 -0.03217002 0.39642003 0.2632159 0.10773829
0.228349 -0.4535854 0.18554227 0.281111 0.18155819 0.2834781 0.43344638 -0.059852444
-0.124399096 -0.22222939 -0.43073848 0.20953196 -0.034561165 -0.038410798 0.010264497 0.32044572
0.0018017261 0.25520298 -0.76048636 -0.011717705 -0.12033498 -0.11494997 0.12268815 -0.043922808
0.33714697 -0.42775917 0.15893346 0.10234242 0.122055925 0.0054512364 0.19379656 -0.19909078
0.15452743 0.042666547 0.17300768 -0.0899584 -0.16662197 -0.0074192127 0.08804336 0.0502053
0.35226375 0.07392408 0.30530453 0.17912793 -0.09859516 -0.35176897 0.27403623 0.0012126261
-0.34030867 -0.2782759 0.167247 -0.2678916 0.069751315 -0.00967999 0.3429783 -0.031303875
0.08224521 0.23124406 -0.0140278 -0.19841695 0.030490931 0.04757836 0.0647129 0.2562576
-0.2237682 0.18535909 -0.3094748 -0.28668165 -0.232765 0.2344443 -0.020857867 0.028353624
00000000: 40fc d6be 91f0 ff3d 9a22 963d e28d b83d
00000010: 05fc 903d e84b 513e a493 65be e7ab 4e3e
00000020: 4b30 083d b36f a0be a1e7 a5be 8352 bf3e
00000030: 6e69 83be 692a 4abe 6cce 7d3e 6b83 abbe
00000040: 186c 7bbe 6e42 d43e 44ac b0be 06ec a6be
00000050: 7028 11be 7d6b adbe 8004 81bd bd12 eebe
00000060: 5910 9aba b5ab a63e 5225 14be 6928 333d
00000070: e34e ad3e a969 0f3f e012 84be 9725 9fbe
00000080: fa0f b53e 00af 5d3e 77c9 ab3c 9067 413e
00000090: eac0 d6be f187 4c3d baea 393e c1b4 cb3e
000000a0: c603 c23e cd9c 2cbe edda cabe a499 a1be
000000b0: fcb0 873e 2361 aebe 5777 8b3d c353 3b3c
000000c0: 685b 59bd 7291 96be 3885 553e 8eb0 df3e
000000d0: 901f 393e e5f8 c3bd e4da bc3d 21ce 083e
000000e0: 3313 d7bc 0580 983e 7cf3 483c d1cc 89be
000000f0: 2f14 563c 0d29 2bbe d18e ba3d ea14 8c3d
00000100: 5026 803e ac53 1abe d820 8d3d 9607 b43e
00000110: 6f9a 173e fa6e 5abc b815 f63d 4305 41be
00000120: dbb2 e7be a93d 76be cdf5 c43e 89b7 873e
00000130: b39b 013e 4b1a 6c3e 031d 8f3c f37e cebe
00000140: e4f7 8bbe 90cb 5c3d ca9e 363e 40d4 7a3e
00000150: d03f a53e 5cee 8fbe aaf3 bbbd 054b 84bd
00000160: cd5a c2bd 7c99 bd3e cb6d 5c3e 36e5 8fbe
00000170: 88b9 eebe ef07 06be b761 a63d b252 56be
00000180: af8c 843d 9eb5 64be 679c 8abe e6d6 1ebd
00000190: 3633 85bd 2f4a 5d3f 9295 7bbe 9b8f 06bb
000001a0: a7de 21be b5c2 44bd 1aa6 a5bc 1455 4c3e
000001b0: 50c0 0c3e f4f2 1abe 2a7a 9fbe c06d 7b3e
000001c0: ff5a c13d d62b 53be 4572 f33e af57 31bd
000001d0: 98d9 18bd 4278 763e fe1d 47bd 5400 3ebd
000001e0: c7f7 c5be bcdc 313d b1ea 803e 49de 473d
000001f0: 61a5 c33e 7d7b c13e 35a6 bf3e e91b 9e3e
00000200: 619a 5f3e 7718 d7bd 44f8 1a3e 630c 16bd
00000210: e7bd acbe c849 13be 2ca4 6c3e a2bd 25be
00000220: 922c 22bc b014 dabd 822a 7b3e 7b6b 3f3e
00000230: e946 783e aaa3 313e a8e5 29be 148d 9b3d
00000240: 5948 563e 7d5a 6dbe fea3 68bd 7e3c 853e
00000250: 9f2d 3e3e e25f 0d3d 6188 6dbd ca14 8c3e
00000260: 944d 16be aa59 1f3e 7bd1 3c3c 7304 41be
00000270: 3ebc 9abe 1220 9e3e 5078 0b3e c961 5b3c
00000280: 8e2f 9bbc 93e9 86be 6906 c8bb 8e2d b0be
00000290: e4fc f23d 8b1e 873d d195 60be b8e5 cf3d
000002a0: 0881 a03a fc2c 14bf 8265 d03e f9f5 c33d
000002b0: 1d8c e7bd 927f 623e 10a8 023d ce1c 7e3e
000002c0: d6b9 c8be 4320 cf3b 7cff 173e ea17 e8bd
000002d0: b6c4 03bd 91f7 ca3e 3cc4 863e e5a5 dc3d
000002e0: 52d4 693e 583c e8be cbfe 3d3e c8ed 8f3e
000002f0: 64ea 393e 0b24 913e afec dd3e d627 75bd
00000300: f4c4 febd 1a90 63be c189 dcbe 8c8f 563e
00000310: 0290 0dbd a454 1dbd 6c2c 283c 7611 a43e
00000320: e527 ec3a f7a9 823e 3caf 42bf 9efb 3fbc
00000330: 3072 f6bd e46a ebbd ed43 fb3d 67e8 33bd
00000340: 879e ac3e 4003 dbbe 74bf 223e e798 d13d
00000350: 75f8 f93d 49a0 b23b 9b72 463e 74de 4bbe
00000360: 703c 1e3e 1ec3 2e3d ed28 313e 1c3c b8bd
00000370: f39e 2abe de1c f3bb 1450 b43d 13a4 4d3d
00000380: ea5b b43e 8265 973d e050 9c3e 506d 373e
00000390: 42ec c9bd 101b b4be 7a4e 8c3e fbf0 9e3a
000003a0: f03c aebe 2e7a 8ebe cc42 2b3e 1629 89be
000003b0: c7d9 8e3d d298 1ebc da9a af3e 7e38 00bd
000003c0: 2d70 a83d 3ecb 6c3e dcd4 65bc d02d 4bbe
000003d0: 1ec8 f93c 87e1 423d 3288 843d 3234 833e
000003e0: 7e23 65be c6ce 3d3e 7b73 9ebe f0c7 92be
000003f0: f359 6ebe 2b12 703e 1ede aabc dc45 e83c

B0__64 f4 [1, 800]
-0.10138716 0.04245408 -0.12661824 -0.023798639 -0.040404793 -0.19711751 -0.20487112 -0.07888417
0.06882449 -0.26531833 0.14031571 -0.09671286 -0.031426862 0.13030462 -0.006529021 -0.019296264
0.09698177 0.021271907 -0.11947121 -0.20137762 -0.13076052 -0.10907634 -0.07028976 -0.055534184
0.04210257 -0.10749709 -0.21605232 -0.11066094 -0.14658774 -0.33445233 -0.091313906 0.104378805
0.16253291 -0.056188166 -0.1127298 -0.042587955 -0.10642129 -0.3026652 -0.20075642 -0.05852942
-0.11078291 0.16988829 0.08142159 -0.043266613 -0.08688521 0.13955718 -0.17591703 -0.022883734
-0.15763551 -0.275267 -0.084237434 -0.14406443 0.03614582 -0.07541157 0.17453754 -0.075919524
-0.17331333 -0.269267 -0.12554091 -0.12710613 -0.17574486 -0.0681167 -0.093953006 -0.17855786
-0.07970158 0.066422366 -0.11550687 -0.2458864 -0.04742911 -0.15354767 -0.14406924 -0.09650587
-0.107876785 -0.21492998 0.0871678 -0.274853 0.031362396 -0.10055067 -0.06232601 -0.005360306
-0.088205546 -0.08328337 -0.20178868 -0.23850593 -0.07481905 -0.06823085 -0.16702197 -0.050356112
-0.017179899 0.10503782 0.020398548 0.03307547 -0.18595852 -0.03673713 -0.029195271 -0.3127306
0.0603469 -0.32840884 0.078117 -0.043725133 -0.059390515 0.014690159 -0.17040697 -0.09401922
0.009205927 -0.07036368 -0.25676414 -0.03353379 0.017115552 -0.26800755 -0.051113173 -0.1788156
-0.07010228 0.014384752 0.018630438 -0.014938314 0.07951482 0.036210924 -0.15301146 -0.19021206
-0.09815915 0.0049747224 -0.04308127 -0.13147369 0.0479243 -0.08995292 -0.14956269 -0.009962482
-0.07940944 -0.32713595 -0.09192446 0.010594083 0.1136919 -0.075560205 0.00962098 -0.0010554127
-0.035403922 -0.33632755 -0.12790065 -0.17085849 -0.045572806 -0.09087122 -0.0967934 0.032345008
0.030268937 0.063564084 -0.20138064 -0.07545452 -0.13574316 -0.2674819 0.018146133 -0.040850587
-0.026363237 0.032292776 -0.011164786 -0.11257493 -0.16507176 -0.25277928 -0.12070899 -0.07147798
-0.20118952 0.0161182 0.03700288 -0.1726412 -0.066131115 0.020389067 -0.021095484 -0.16133295
-0.138489 -0.1104695 0.017040957 -0.14792405 -0.0009426007 -0.17165574 -0.038315546 -0.25639153
-0.03346806 -0.09572786 -0.0607734 0.0033672573 -0.03672656 -0.095295124 -0.21426989 -0.114679
0.052162223 -0.011771516 -0.047202103 -0.058832012 -0.025269298 -0.029776234 -0.08478182 0.041470554
-0.14878866 -0.07782171 0.0060034157 -0.27423817 -0.063883305 -0.37134904 -0.08438628 0.029943267
0.8072114 0.8961748 0.9606432 0.933531 1.067772 0.91662806 0.8565657 1.0799893
0.99523443 0.80727947 0.8205523 0.73398143 0.8374449 1.1616521 0.99709797 1.0362092
0.89882123 1.0121406 0.66329795 0.73177516 0.9312358 0.98023707 0.9285287 0.9947747
0.99621415 0.87025225 0.89869314 0.95112836 0.91878045 0.70515734 0.6633214 1.0363117
0.9514594 0.8050974 1.0176992 0.9770235 1.0923876 0.813564 0.82369596 1.0162902
0.95811075 0.7352036 0.9390684 1.0169874 0.918709 1.092395 0.952133 0.9327287
0.96152985 0.79867774 0.8407213 0.9797899 0.91710883 1.029547 0.8292401 1.1277461
00000000: 12a4 cfbd 54e4 2d3d 36a8 01be 5df5 c2bc
00000010: 7f7f 25bd 2cd9 49be bcc9 51be 068e a1bd
00000020: dbf3 8c3d ced7 87be ecae 0f3e 6411 c6bd
00000030: 74b9 00bd 936e 053e 66f1 d5bb 3313 9ebc
00000040: 619e c63d 6c42 ae3c 52ad f4bd ef35 4ebe
00000050: 16e6 05be 6b63 dfbd 14f4 8fbd d077 63bd
00000060: bf73 2c3d 6f27 dcbd d23c 5dbe 34a2 e2bd
00000070: 191b 16be 563d abbe c902 bbbd 8ec4 d53d
00000080: 076f 263e 9025 66bd e2de e6bd b570 2ebd
00000090: 68f3 d9bd eff6 9abe 1793 4dbe 8cbc 6fbd
000000a0: 26e2 e2bd 32f7 2d3e 5dc0 a63d 5538 31bd
000000b0: dff0 b1bd 14e8 0e3e 9823 34be ab76 bbbc
000000c0: 346b 21be ccef 8cbe ad84 acbd a085 13be
000000d0: a40d 143d 6271 9abd f8b9 323e b27b 9bbd
000000e0: 0d79 31be 5ddd 89be cc8d 00be 1c28 02be
000000f0: 76f6 33be c580 8bbd 6f6a c0bd dfd7 36be
00000100: 953a a3bd 7308 883d de8e ecbd a5c9 7bbe
00000110: 0745 42bd 9a3b 1dbe e386 13be dfa4 c5bd
00000120: 81ee dcbd 9b16 5cbe 0885 b23d 88b9 8cbe
00000130: db75 003d 82ed cdbd 8f49 7fbd 81a5 afbb
00000140: 1ca5 b4bd 7990 aabd b1a1 4ebe e63a 74be
00000150: bb3a 99bd 9ebc 8bbd cf07 2bbe 3642 4ebd
00000160: dcbc 8cbc 121e d73d db1a a73c 257a 073d
00000170: e96b 3ebe ac79 16bd ec2a efbc 3a1e a0be
00000180: 502e 773d 3425 a8be cefb 9f3d 2019 33bd
00000190: 7843 73bd feae 703c 2a7f 2ebe 268d c0bd
000001a0: 75d4 163c d51a 90bd 9776 83be ba5a 09bd
000001b0: ea35 8c3c 4938 89be 0c5c 51bd 701b 37be
000001c0: c991 8fbd 06ae 6b3c dc9e 983c d5bf 74bc
000001d0: aad8 a23d e851 143d 09af 1cbe f3c6 42be
000001e0: aa07 c9bd ff02 a33b fc75 30bd 0aa1 06be
000001f0: 454c 443d 3d39 b8bd f626 19be ae39 23bc
00000200: 6ba1 a2bd 5d7e a7be e442 bcbd ce92 2d3c
00000210: 4dd7 e83d 4fbf 9abd 51a1 1d3c c655 8aba
00000220: b403 11bd 2033 acbe 63f8 02be 87f5 2ebe
00000230: 8daa 3abd b11a babd 9e3b c6bd 337c 043d
00000240: 90f6 f73c e32d 823d ba36 4ebe e687 9abd
00000250: 4100 0bbe 63f3 88be 33a7 943c f252 27bd
00000260: b7f7 d7bc 6e45 043d 82ec 36bc af8d e6bd
00000270: 9208 29be 496c 81be 4636 f7bd 0c63 92bd
00000280: a004 4ebe 510a 843c 5590 173d dbc8 30be
00000290: c06f 87bd f906 a73c 70d0 acbc 7734 25be
000002a0: 0fd0 0dbe d53d e2bd 7a99 8b3c 6779 17be
000002b0: dd18 77ba 86c6 2fbe c3f0 1cbd c045 83be
000002c0: ce15 09bd f80c c4bd 87ed 78bd 34ad 5c3b
000002d0: 976e 16bd 172a c3bd 9169 5bbe d3dc eabd
000002e0: 0ea8 553d 51dd 40bc fe56 41bd d6f9 70bd
000002f0: 8f01 cfbc 4aed f3bc 17a2 adbd 07dd 293d
00000300: 0e5c 18be fd60 9fbd 4db8 c43b f268 8cbe
00000310: 40d5 82bd 7621 bebe b7d2 acbd 954b f53c
00000320: 68a5 4e3f b66b 653f b6ec 753f e3fb 6e3f
00000330: c1ac 883f 23a8 6a3f e447 5b3f 173d 8a3f
00000340: afc7 7e3f dea9 4e3f b70f 523f 35e6 3b3f
00000350: ca62 563f 04b1 943f d041 7f3f 81a2 843f
00000360: 2619 663f d38d 813f e5cd 293f 9e55 3b3f
00000370: 7865 6e3f d1f0 7a3f 0fb4 6d3f 8ea9 7e3f
00000380: e407 7f3f dac8 5e3f c110 663f 267d 733f
00000390: 3235 6b3f 3185 343f 6ecf 293f dda5 843f
000003a0: d892 733f dd1a 4e3f f843 823f 361e 7a3f
000003b0: 5bd3 8b3f bb45 503f bddd 523f cc15 823f
000003c0: bf46 753f 4e36 3c3f c966 703f a52c 823f
000003d0: 8330 6b3f 99d3 8b3f fdbe 733f 4fc7 6e3f
000003e0: d226 763f 2576 4c3f 8339 573f 83d3 7a3f
000003f0: a5c7 6a3f 32c8 833f 1449 543f fc59 903f

B0__43 f4 [1, 800]
-0.04679695 -0.118502736 -0.14038464 -0.028970541 -0.08465777 -0.18369026 -0.04716525 -0.09815587
0.0040113083 -0.12498969 -0.07701128 -0.19470881 -0.09287996 -0.03793422 0.014264053 -0.024669012
-0.06356502 -0.10984251 -0.02815161 -0.08592953 -0.13201487 -0.21436298 -0.022665516 -0.06117813
-0.10594639 -0.05013266 -0.13175365 -0.2502394 0.104967535 -0.04044434 -0.03023771 -0.111931674
-0.12879173 -0.12272305 -0.09929023 -0.18588197 0.020122804 -0.05087388 0.0018228103 0.048604146
0.0364925 0.028086593 0.01656478 -0.031588707 0.019264149 -0.065562695 -0.049396798 -0.0975123
-0.11837997 -0.07474044 0.013390817 -0.11838501 0.0063068355 -0.09467943 -0.23592073 -0.100569926
-0.00927552 -0.07599098 -0.11985776 -0.034058224 -0.23965335 0.010145467 -0.15088698 -0.20790859
-0.08900883 0.020867897 -0.10542667 -0.17878427 -0.054735485 0.07524606 0.024330279 -0.17201854
-0.028984819 -0.02200203 -0.08778856 -0.16893719 0.011100351 -0.10014945 -0.13798225 -0.12173811
-0.08103437 -0.12380897 0.11321126 -0.06832127 0.07135657 0.0110206455 -0.1408516 -0.093744144
0.076282926 -0.03466442 0.10819533 -0.06463978 -0.017568883 -0.25978735 -0.13363288 0.009229747
-0.06891621 -0.043069094 -0.054660425 -0.09462143 -0.11525543 -0.027680766 -0.11792042 -0.0605329
-0.081457436 -0.19916816 -0.07641155 -0.08716536 0.051596966 -0.12130303 -0.031037228 -0.19376285
-0.07320963 0.008599119 -0.092358045 -0.031705003 -0.07695851 -0.017873758 -0.0077828807 -0.05902982
-0.21222228 -0.19552116 -0.010374474 -0.07270358 0.027609674 -0.012926242 0.044912215 -0.13570355
-0.085950665 0.031260896 -0.057265896 -0.13244745 0.13030714 -0.039395895 -0.16734976 -0.11924121
-0.053973068 -0.058487788 -0.10198142 -0.2685658 -0.16474062 0.058138482 0.059418764 -0.09401306
-0.070617445 -0.04117688 -0.008711227 -0.10981057 0.023131998 -0.03882864 -0.0026910782 -0.081699476
0.040268704 -0.0411748 -0.27026746 -0.100284554 -0.0464555 -0.08566431 -0.10078119 0.023441441
-0.17277415 0.07445743 -0.14393622 -0.15412277 -0.08587742 0.029618869 -0.075223304 -0.160434
-0.041140467 0.1387212 0.022999775 -0.060961746 0.017426489 -0.06637059 -0.045291774 -0.30567324
0.06001201 -0.17974225 0.05028546 -0.12742814 -0.05710974 -0.11569979 0.11351407 -0.2550871
0.012371733 0.052412756 -0.096793465 -0.106778555 0.074411094 -0.062352516 0.08266966 -0.125336
-0.10375597 -0.20910704 0.1441024 0.036172498 -0.09032027 0.009299205 -0.04061448 -0.04637806
0.88846684 1.0371083 1.0349443 0.98017925 0.79611266 0.8523374 0.86503255 0.94538385
0.94254285 0.85671794 0.9910086 0.7708471 0.85829973 1.0603646 1.12279 0.8861117
0.976127 0.947713 0.90053463 0.96056336 0.9338977 0.8831998 0.9466431 0.9013636
0.9364155 0.91683906 1.0791914 1.0541197 0.8238163 1.0042847 0.95074093 0.8597203
1.0208397 0.89310163 0.9393275 0.89291304 0.9050933 0.89986354 1.2132931 0.79526675
0.7917413 1.0301965 0.96939737 0.8210016 1.1381655 0.8930784 0.92932457 0.8808124
0.9365908 0.859222 0.9588658 0.8871329 0.9864855 0.95495325 0.73024344 0.9856238
00000000: 29ae 3fbd 90b1 f2bd fec0 0fbe a153 edbc
00000010: 0e61 adbd 4d19 3cbe 5930 41bd f205 c9bd
00000020: 4b71 833b 98fa ffbd 17b8 9dbd bf61 47be
00000030: d937 bebd ea60 1bbd c6b3 693c ab16 cabc
00000040: 612e 82bd 1cf5 e0bd 359e e6bc d2fb afbd
00000050: e82e 07be f881 5bbe 08ad b9bc eb95 7abd
00000060: 6cfa d8bd e757 4dbd 6eea 06be 611f 80be
00000070: 38f9 d63d f7a8 25bd 13b5 f7bc 6f3c e5bd
00000080: fbe1 03be 3956 fbbd ad58 cbbd d857 3ebe
00000090: 94d8 a43c 2161 50bd 5deb ee3a 2415 473d
000000a0: 2979 153d db15 e63c ddb2 873c 2963 01bd
000000b0: d9cf 9d3c bc45 86bd 4c54 4abd 87b4 c7bd
000000c0: 3371 f2bd 8411 99bd 2865 5b3c d773 f2bd
000000d0: 92a9 ce3b 4ae7 c1bd 3495 71be 9bf7 cdbd
000000e0: 5af8 17bc 29a1 9bbd fc77 f5bd a380 0bbd
000000f0: b067 75be 2c39 263c 1e82 1abe fde5 54be
00000100: 434a b6bd 27f3 aa3c f0e9 d7bd 3913 37be
00000110: 5132 60bd 9b1a 9a3d 4b50 c73c a125 30be
00000120: 9271 edbc 9a3d b4bc 7dca b3bd dffd 2cbe
00000130: 3fde 353c 281b cdbd 384b 0dbe d551 f9bd
00000140: 59f5 a5bd 8f8f fdbd 4edb e73d 06ec 8bbd
00000150: 6523 923d f08f 343c 673b 10be eefc bfbd
00000160: 393a 9c3d 47fc 0dbd 8395 dd3d dc61 84bd
00000170: 9eec 8fbc d902 85be 0fd7 08be 5d38 173c
00000180: f123 8dbd 3869 30bd 9ce3 5fbd e1c8 c1bd
00000190: 0a0b ecbd c6c2 e2bc 4380 f1bd 59f1 77bd
000001a0: 28d3 a6bd bdf2 4bbe a97d 9cbd c183 b2bd
000001b0: 5757 533d b96d f8bd c941 febc c569 46be
000001c0: eeee 95bd 52e3 0c3c 3726 bdbd 1bdd 01bd
000001d0: 6c9c 9dbd fd6b 92bc 8907 ffbb 41c9 71bd
000001e0: cc50 59be b336 48be b3f9 29bc 9de5 94bd
000001f0: af2d e23c 97c8 53bc dff5 373d dff5 0abe
00000200: e706 b0bd 6d0b 003d a58f 6abd 4ea0 07be
00000210: 3c6f 053e 975d 21bd bc5d 2bbe bc34 f4bd
00000220: dd12 5dbd e490 6fbd a2db d0bd 7581 89be
00000230: c4b1 28be 9e22 6e3d 1761 733d eb89 c0bd
00000240: e19f 90bd 17a9 28bd 89b9 0ebc 5de4 e0bd
00000250: 517f bd3c c80a 1fbd cd5c 30bb 0e52 a7bd
00000260: ccf0 243d e8a6 28bd 7f60 8abe fd61 cdbd
00000270: 1f48 3ebd c570 afbd 5e66 cebd 4408 c03c
00000280: b5eb 30be 237d 983d 0464 13be 5cd2 1dbe
00000290: 80e0 afbd 45a3 f23c ad0e 9abd cf48 24be
000002a0: e882 28bd ee0c 0e3e 066a bc3c 06b3 79bd
000002b0: ffc1 8e3c 4eed 87bd de83 39bd 3481 9cbe
000002c0: 27cf 753d 5a0e 38be 20f8 4d3d 867c 02be
000002d0: e7eb 69bd 03f4 ecbd 117a e83d c79a 82be
000002e0: cfb2 4a3c c2ae 563d a73b c6bd b7ae dabd
000002f0: d864 983d 5a65 7fbd b64e a93d 1558 00be
00000300: 037e d4bd 2820 56be 948f 133e 9d29 143d
00000310: d5f9 b8bd b15b 183c 5e5b 26bd ecf6 3dbd
00000320: 9072 633f f7bf 843f 0e79 843f 07ed 7a3f
00000330: 0ace 4b3f c932 5a3f c672 5d3f ad04 723f
00000340: 7d4a 713f de51 5b3f bdb2 7d3f 3c56 453f
00000350: 88b9 5b3f 07ba 873f 95b7 8f3f 37d8 623f
00000360: 76e3 793f 529d 723f 7089 663f 7be7 753f
00000370: eb13 6f3f 6219 623f 3457 723f c4bf 663f
00000380: edb8 6f3f f7b5 6a3f f222 8a3f 65ed 863f
00000390: a0e5 523f 678c 803f c263 733f a116 5c3f
000003a0: e0aa 823f 4fa2 643f c477 703f f395 643f
000003b0: 32b4 673f 755d 663f 304d 9b3f 9a96 4b3f
000003c0: 8faf 4a3f 7bdd 833f 6d2a 783f 292d 523f
000003d0: 68af 913f c9a0 643f 37e8 6d3f ec7c 613f
000003e0: 6ac4 6f3f f9f5 5b3f 3b78 753f 241b 633f
000003f0: 508a 7c3f d177 743f 3cf1 3a3f d751 7c3f
